data.pth (torch, 22378 bytes, 6 tensors)

l1.weight f4 [8, 346]
00000000: 6476 77bd c527 9f3e ae9a 263f 2a1b 0840
00000010: 7089 8f3f 3f95 8e3f a05e 20be 55fc 56bf
00000020: 54ad 693f 86ea b8bf e2d3 e83f 591c 7dbd
00000030: f1b5 a9bf da9d 2540 4278 c5be d8e2 5e3f
00000040: 8bdc 9bbf 7c17 5c3f dbb4 5cbf d63a 0f3f
00000050: 350a 05bf a1a3 7e3f 898a 29bf 38cb 1b40
00000060: 52bf 10bf cd43 8f3f bd82 94bf 52e2 27bf
00000070: 838a 84bf a6d9 58bf b892 0b3f 4f9b 70bf
00000080: 8a7f debf 8551 e13f 4ffe 6cbf b961 5bbd
00000090: d5e7 953f 3f0a 683e ffdc 1fbf 8aeb 3fbc
000000a0: d231 b73e 4d8f 93bc c612 173f be57 17bf
000000b0: 8158 e4be 144e 07bf f809 083f ed4d cd3f
000000c0: 8943 53bf 2dab d13e 086d 09bc a6f0 e0bb
000000d0: 4238 bbbe d03c 113f ef55 a23f 4777 a93e
000000e0: 31f6 1cbf d565 533f 4a9f 40bf 2e56 50bf
000000f0: 8a22 0740 a1ac 323f e91f 853f 25db 42bf
00000100: cc05 05bf bcda ff3e d658 8fbf dea9 203f
00000110: 2216 ff3f 67e7 0cc0 97a7 a6bf a70c 7c3f
00000120: 5a5e 93bf 5aa9 06c0 bbd6 3abf 5706 623f
00000130: dd7e 24bf c95f ed3e a3ad cd3e 7f5e 46bf
00000140: 9b5a 0740 99fa 533f 68ce 6f3f 71be da3f
00000150: 5456 11be aa70 a9bc 1631 90be 143b 17be
00000160: 1869 3340 0a33 843d 3520 a43d 4c76 46bf
00000170: 91a3 673f 7ff7 113f 405e de3f fc51 fd3f
00000180: 57d0 0240 24cc 57bf 6337 49bf 2ce5 d43c
00000190: ccca 1a3f f715 12bf d730 9dbf 2294 b5bf
000001a0: a26a 6a3f 49cb dd3f 1d68 fa3e 9fb7 65bf
000001b0: 42b5 983f 74b7 9bbf 5077 963f 6e5f d63f
000001c0: bdb4 983f 7f2d 05bf 71b2 c63f 2afb a23f
000001d0: 0846 c13f 5e17 4d3f 3935 2a3d f4e1 963e
000001e0: 28c6 ab3f db0a b53f a2a9 173f 4dd6 883f
000001f0: 7f5e 033f 3593 2740 49f4 c83e deff e2bf
00000200: 054b fbbf a0f6 1b3c 1128 1e3e 6ed5 813f
00000210: 4a03 a0bf e2cb 973f 7744 5a3f 3875 4c3f
00000220: 345f aabe b61d e3be b932 593f 8329 4d3d
00000230: bf8b 1b3f e9c9 183f e8e4 9f3f 4045 debe
00000240: 043e 9d3f 8b6b d3be 3fce dfbe b5ca e0be
00000250: c21c ad3e ef91 ddbe 85a3 c0be 7701 32bf
00000260: 2651 0840 465a 04bf c3fa 493f ce39 713f
00000270: d653 d7bf 7a5f 0fbc 240d fc3d b9a1 1cbc
00000280: 4122 a73f 57ce be3e 34c1 12bd 8597 dfbf
00000290: b223 8b3c 84d9 b4bf 4fbe 2ebf 28d3 5f3f
000002a0: bb4d 083e acb4 65bf 0944 bf3d f728 ec3d
000002b0: e9ae aebf b455 563f 7195 bfbf 957e cbbe
000002c0: 9001 493f 3b62 4abf 1cd6 57bf ab8a 9dbf
000002d0: 2d3b b4be 6569 f2bc 8a78 99bf 4d82 73bf
000002e0: a8de 8d3f af96 8f3f c836 493f 4c75 3d3f
000002f0: c6b9 8f3f 0b19 32bd dcc6 a03f 7476 50bf
00000300: 1313 253f 36c4 b6bf 3437 e83f ac1d 48bf
00000310: 2642 4d3f 35f1 04bf 1a70 933f 2288 853f
00000320: 78bc ad3b e84a 1c3e c62b c6be 4444 86be
00000330: 99b8 6bbf 790e 05bf 282b 0d3f c8d0 cd3e
00000340: 59fd 7dbe c4e2 0340 1c90 43bd 04fd 473f
00000350: 0932 87bf e113 66bf 232c 773f f1af a8be
00000360: 2d14 c13f 6f04 5a3f fe6b 6c3f a952 c4bf
00000370: 3c7a 0340 f22c ad3e 2e99 f83f 5fe5 f0bf
00000380: 9543 24be 8168 6b3f 88bd 503d 25b2 acbf
00000390: 1dd8 5c3f d9ec 4bbf 16d9 c4be f0f3 e0bf
000003a0: 4a65 2fbf 4741 c7be ae8b 53be 6b86 193d
000003b0: 9aaa 133c aa0e 78bf d9fb e5be b5f6 76bf
000003c0: 1128 9f3f 065a 1a3f b20e 83bf 51fc c03f
000003d0: 7e1e 84bf 5860 463f 7666 e0be d18b 13c0
000003e0: b11e 9bbf 8924 d63f 4a5e 05bf 4f0b d1bf
000003f0: 4e9f 813f 0f23 97bf bec8 a1bf 7d96 d7be
-0.06041564 0.3108503 0.6507977 2.126658 1.1213818 1.1139296 -0.15661097 -0.8397878
0.912801 -1.4446571 1.8189662 -0.061794613 -1.3258649 2.5877595 -0.38568312 0.87064886
-1.2176679 0.85973334 -0.86213464 0.5594915 -0.519687 0.9946843 -0.6622701 2.4342785
-0.5654193 1.1192566 -1.1602398 -0.6557971 -1.035477 -0.84707105 0.5452075 -0.9398698
-1.7382672 1.7603003 -0.92575544 -0.053559992 1.1711375 0.22660159 -0.6244659 -0.011713872
0.35780197 -0.018012667 0.5901302 -0.5911826 -0.44598773 -0.5285351 0.5314021 1.6039406
-0.82524925 0.4095091 -0.0083878115 -0.006864625 -0.3656636 0.5673342 1.2682475 0.33098814
-0.6131316 0.8257726 -0.75243056 -0.813815 2.111483 0.6979466 1.0400363 -0.7611564
-0.5196197 0.4997157 -1.1198986 0.62759197 1.9928629 -2.2016237 -1.3019894 0.98456806
-1.1513169 -2.1040864 -0.729839 0.88290924 -0.6425608 0.4636214 0.40171537 -0.7748794
2.114905 0.82804257 0.93674326 1.7089368 -0.14193088 -0.020683605 -0.2816245 -0.1476863
2.8032894 0.064550474 0.080139555 -0.77524257 0.9048396 0.57018274 1.7372513 1.9790645
2.043966 -0.8429587 -0.7860014 0.025988184 0.60465693 -0.57064766 -1.228053 -1.4185832
0.9156896 1.7327663 0.48907557 -0.8973331 1.1930315 -1.216536 1.1755161 1.6747873
1.1930157 -0.52022547 1.5523206 1.2732899 1.5099497 0.8011378 0.041554663 0.29469264
1.3419847 1.4143938 0.59243214 1.06904 0.51316065 2.6183598 0.39248875 -1.7734334
-1.9632269 0.009519249 0.15444972 1.0143259 -1.2501004 1.1859095 0.8526072 0.7986636
-0.3327576 -0.44358605 0.8484302 0.050088417 0.6076011 0.5968309 1.2491732 -0.4341221
1.2284551 -0.41292986 -0.4371204 -0.43904653 0.33811003 -0.432754 -0.37624756 -0.69533485
2.129953 -0.51700246 0.78898257 0.9422883 -1.682246 -0.008750791 0.12307194 -0.009560042
1.3057328 0.372668 -0.035828784 -1.7468115 0.016984794 -1.412888 -0.6825914 0.87431574
0.13310902 -0.8972881 0.093391486 0.11531251 -1.3647128 0.8372452 -1.4967481 -0.39745012
0.7851801 -0.7905614 -0.8431108 -1.2307943 -0.35201398 -0.029591272 -1.1989911 -0.951207
1.1083574 1.121786 0.78599215 0.74007106 1.1228569 -0.043480914 1.2560687 -0.81430745
0.6448223 -1.4278629 1.8141847 -0.78170276 0.8017906 -0.5193055 1.1518586 1.043217
0.0053020082 0.1526295 -0.3870527 -0.26223958 -0.9207855 -0.5197521 0.55143976 0.4019835
-0.24803676 2.0607157 -0.047744855 0.78120446 -1.0562145 -0.8987408 0.9655172 -0.32946733
1.5084282 0.85163015 0.92352283 -1.5337726 2.0543356 0.33823353 1.9421747 -1.8819999
-0.16041405 0.91956335 0.050962 -1.3491865 0.8626726 -0.79658276 -0.38446873 -1.7574444
-0.6851393 -0.3891699 -0.20658752 0.037481707 0.009012843 -0.96897376 -0.44918707 -0.96470195
1.2434102 0.60293615 -1.023886 1.5077001 -1.0321805 0.7749076 -0.43828171 -2.3054087
-1.2118741 1.67299 -0.52097 -1.6331576 1.0126741 -1.1807574 -1.2639387 -0.42107

l1.bias f4 [8]
00000000: 9cd5 cb3e 92ac 7b3f 3f65 a83e c56a 4d3f
00000010: 2049 f53e 4227 ea3e 6457 7a3f 03ae 9a3f
0.3981141 0.98310196 0.32889745 0.8024104 0.47907352 0.45733076 0.977896 1.2084354

l2.weight f4 [8, 8]
00000000: afa4 a1bf b9f3 eb3f f721 903d 2dc5 babf
00000010: 2960 c23c 637e 0f40 aaf0 5f3f 70d4 f13e
00000020: d0a5 4340 d2d1 b23f f380 813f 6527 ebbf
00000030: 0035 fc3f 1875 ee3f 0c8d 9c3f 3b7b 8cbf
00000040: cb6e 953f a94a abbf dfc4 f23e 125c 0640
00000050: 847e 3b40 a026 6c3f 2676 d0bf 08cd 0e40
00000060: 8d55 2dc0 ee36 7e3f e741 df3f 070e 3740
00000070: 3166 b4bc 4e01 55bf cac6 0bbf 9374 1240
00000080: eb2f 43bc d91d 04bf af56 d8bf 8dfb 753f
00000090: 853b 6ebf 0e71 0340 9799 4440 e502 1340
000000a0: 0768 693f 4d13 4240 5e61 a03f 8358 b93f
000000b0: faeb 28c0 5137 dcbf e828 b23f 5627 7cbd
000000c0: 7263 a43f 0785 48bf 2fe9 1a40 4d67 1540
000000d0: 2f61 d53e 952f d8be e5e0 e03f 9382 55bf
000000e0: 010a b2be dd0f 01be 7fc6 a1be 1290 59be
000000f0: 5dd4 823e 346c 953d ef15 28be 69c9 a6be
-1.2628382 1.8433753 0.07037728 -1.4591423 0.023727493 2.242089 0.874766 0.4723239
3.0569954 1.3970282 1.0117477 -1.8371397 1.9703674 1.8629484 1.2230544 -1.0975107
1.1674436 -1.338216 0.47415826 2.0993695 2.929597 0.9224644 -1.6286056 2.231264
-2.7083466 0.99302566 1.7441987 2.8602312 -0.022021385 -0.83205116 -0.54600203 2.2883651
-0.01191328 -0.51608044 -1.6901454 0.9608696 -0.9305957 2.0537753 3.0718744 2.2970517
0.9117436 3.032428 1.2529714 1.4480137 -2.6394029 -1.7204381 1.3918734 -0.06156095
1.2842848 -0.78327984 2.4204824 2.33443 0.41675708 -0.42223802 1.7568632 -0.83402365
-0.34773257 -0.12603708 -0.31596753 -0.21246365 0.25552645 0.07296029 -0.16414617 -0.3257554

l2.bias f4 [8]
00000000: 5bab 7f3e f192 793e 963e b6bc aa15 9f3f
00000010: 691e d63e a3cb 1e3e 9612 13bf d403 77be
0.2496771 0.2437246 -0.02224664 1.2428486 0.41820076 0.15507369 -0.57450235 -0.24122554

l3.weight f4 [62, 8]
00000000: 2eb9 fabd e2aa 9abd 2b1c fbbe e4b6 48c0
00000010: edaa 693f eac0 09bf 2c69 43bf 9255 393e
00000020: 7b8a 23c0 a6c0 b2be 6e19 1bc0 f727 13bf
00000030: 16a4 3bbf c416 083f 35b3 433f 4a0d aebe
00000040: ff98 7fbf 3b48 25bd c8bb d8bf 0525 62c0
00000050: 2d4e 743e f65d f73e 4168 c03e 1912 af3e
00000060: 1783 3b3e 32cb cdbe 391f d5bd 2d3b ea3e
00000070: bf2b 133f 0616 77c0 468b 8ec0 782b 8dbe
00000080: 68c7 513f c7b4 1c3f 4ae1 aabd 9240 3dc0
00000090: 3e20 e13e d819 79c0 c507 3ec0 9281 7f3e
000000a0: eb75 adbf 67b8 173f fc60 743f ed59 61c0
000000b0: 30a0 5fbe f2cc 7ac0 a253 4cbf 4e66 1b3e
000000c0: af17 8dbf 02b7 93bd a18b 873e 25bc d2bf
000000d0: 6163 bc3e 2b3e 76bf 321f ffbe 6da8 b03e
000000e0: 273f cfbf 371b 30bb fbf1 45bf 5623 9abf
000000f0: c654 79bf 39d5 33bf 8acb 473f 5f4b 9b3e
00000100: bc82 1e3f 9d9d 363f 4ede b4c0 97ad 233f
00000110: f1c4 a6bf 05a6 843f 6b4e 2dc0 4d72 adbe
00000120: 61a3 2e3f a86f 793f b89f 6dc0 6ee6 4bc0
00000130: 7c04 fabe 3da4 e73e f376 85bf 5840 303d
00000140: 03e6 ff3e f447 7bbf 78be 18c0 39af e73c
00000150: 728e cbbd bd8e aa3e 0560 52bf 4854 a43d
00000160: d844 513f 10c3 d83e 12c1 fbbf 4fde 17c0
00000170: c674 963f cb02 acbf 8e51 7ac0 8fd7 af3e
00000180: 7570 c93e 99c2 ad3d 48de 1bc0 93a6 88bf
00000190: 1435 1abf 86e3 d83e facf 573e 53ea 873e
000001a0: 2ac2 f8bd 1598 01c0 e821 bdbe afb7 693e
000001b0: 21e6 703d 86aa 23bf 020a a6bf b7f2 933e
000001c0: 2ee9 efbe 4a4d 2fbf d4b6 b5bf 7259 a0bf
000001d0: 8fdd 2c3f 9cf5 bfbc 8259 38be 6072 8ebc
000001e0: f71d 1a3f a93e 033e 5d1a 67c0 6e28 38bf
000001f0: c79e eb3e d498 a13e 7da6 ffbf 085f 17bd
00000200: 9418 7d3e 1b57 183e 4a68 48c0 d440 7dc0
00000210: f674 283f 0a5c 223d c2b6 e6bd 206d a2be
00000220: 8b3e 82bd ea13 313e 7c0c c3be a325 83c0
00000230: 7d97 d63e 18a2 16c0 e01e 883e ec00 bfbd
00000240: 1703 4fbe 9db0 09bf eed7 19c0 394c 8b3d
00000250: 7c1b a0be 3268 06bf f7b0 003f 1436 f83d
00000260: 87f7 4fbf ccbc 7bbe 0b99 6abf b881 0cbf
00000270: ae22 26bf f4ad 703e 2f5d 0fbb 8e3f 4a3e
00000280: c828 8ec0 e7fb 1cbe 9fc8 093f 260c dbbe
00000290: ac9e 83c0 5df9 043d 8271 17bd be43 69be
000002a0: af1b 71bf 06a2 10c0 b032 a8bf 229c da3c
000002b0: 7547 a5bc 3791 dd3e 639d 2ebe 4584 9f3e
000002c0: 1df2 9ebf a24d 85bf 0cfe 403e 46d2 e73e
000002d0: 70f5 89c0 e2da 39bf 808f 903e 4d3c 95be
000002e0: 0618 d0be 89f6 a8bf af14 033d 2fc4 db3f
000002f0: 1370 e1bf 48c1 04bf 6d21 95c0 3264 98be
00000300: fcf0 09bf c261 373f 6460 6bc0 2481 e4be
00000310: 2121 8bc0 2c9e 2f3f e70a 883e c0a5 c03b
00000320: 58f7 d43e 3d81 043f 3c1f 8abe b01a 79c0
00000330: 7b3c f4bf b333 e5bf 4710 523e 6660 eebd
00000340: d599 aebf 23df d9be ed3b 21be 3421 31bf
00000350: 1c3f 833e e0d6 273e 2cfd 72bf 3c61 f3bd
00000360: 40bd a1c0 a5b4 fbbf f766 e03d 5d3c 193f
00000370: 21ab 0ac0 21ff abbe a402 623e b85a a5bd
00000380: 5538 b3be 9a19 86bf c608 60be da92 98bf
00000390: dd39 803f ba2d f9bf ca27 3dbf e616 523e
000003a0: e39d a7bf e61e ee3d 446e bc3e a111 57bf
000003b0: 6dd8 d5bf a762 82bf 663e 21be a289 023e
000003c0: 6e92 75bf a6aa 65bf dbee 193d e60f 613e
000003d0: f5e4 d33d f8d1 acc0 c059 cebe 6015 6c3d
000003e0: 197f 28bf d112 e6bf acfd a4c0 c35f 4d3f
000003f0: 4163 1e3f 9e21 a83f 82b8 71c0 38d4 3a3d
-0.122423515 -0.075521246 -0.49044928 -3.1361628 0.9127644 -0.5380999 -0.76332355 0.18099049
-2.5553272 -0.34912604 -2.423427 -0.57482857 -0.7329725 0.5315974 0.76445323 -0.33994514
-0.9984283 -0.040352087 -1.6932306 -3.5335095 0.23857947 0.48313874 0.3757954 0.34193495
0.18311726 -0.40194088 -0.10406346 0.45748273 0.57488626 -3.8607192 -4.454501 -0.27572227
0.81944895 0.61213344 -0.08343752 -2.957066 0.4396991 -3.8922024 -2.9692242 0.24951771
-1.3551611 0.5926575 0.95460486 -3.5211136 -0.2183845 -3.9187589 -0.79815114 0.15175745
-1.1022853 -0.0721264 0.26473716 -1.6463667 0.3679457 -0.9618861 -0.49828488 0.345035
-1.6191148 -0.002687169 -0.7732236 -1.2042034 -0.9739498 -0.70247227 0.7804495 0.3033094
0.61918235 0.7133425 -5.652137 0.6393675 -1.3028852 1.0363165 -2.7079113 -0.33876267
0.68218046 0.97436 -3.7128735 -3.1859393 -0.48831546 0.4524249 -1.0426925 0.043030113
0.49980173 -0.98156667 -2.3866253 0.028281795 -0.09939279 0.33312026 -0.82177764 0.08023888
0.8174567 0.4233632 -1.9668295 -2.3729436 1.1754386 -1.3438352 -3.9112277 0.34344146
0.3934361 0.08484382 -2.435442 -1.0675834 -0.6023724 0.42361087 0.2107543 0.26545963
-0.12146409 -2.0249074 -0.3693993 0.22823976 0.058813218 -0.63932073 -1.2971804 0.28896114
-0.4685759 -0.6847731 -1.419642 -1.2527297 0.6752557 -0.023432545 -0.18002895 -0.017388523
0.6020197 0.12816872 -3.610984 -0.7193669 0.46019575 0.3156191 -1.9972683 -0.036955863
0.24716407 0.14876978 -3.1313653 -3.9570818 0.6580347 0.039638557 -0.11265327 -0.3172388
-0.063595854 0.17292753 -0.38095462 -4.0983443 0.4191245 -2.3536434 0.26586056 -0.09326348
-0.20216022 -0.53785115 -2.4038043 0.06801648 -0.3127097 -0.5250274 0.50270027 0.121196896
-0.8123707 -0.24583739 -0.91639775 -0.54885435 -0.64896667 0.23503858 -0.002187561 0.19750807
-4.442478 -0.15330468 0.5382175 -0.42782706 -4.113119 0.032464374 -0.036973484 -0.22779748
-0.94182867 -2.2598891 -1.3140469 0.026685778 -0.020175675 0.43274853 -0.17052226 0.311556
-1.2417637 -1.0414317 0.18846911 0.45277613 -4.3112106 -0.72599614 0.28234482 -0.29147568
-0.40643328 -1.3200237 0.032002147 1.7169245 -1.7612327 -0.51857424 -4.6603303 -0.29763943
-0.5388334 0.7163354 -3.6777582 -0.44629776 -4.347794 0.68600726 0.26570818 0.005879134
0.41594958 0.517597 -0.26976955 -3.8922539 -1.9080957 -1.7906402 0.20514022 -0.1163948
-1.3640696 -0.42553052 -0.15745516 -0.6919129 0.25634086 0.16390562 -0.9491756 -0.1188378
-5.054352 -1.9664503 0.10957139 0.5985773 -2.1666949 -0.33593085 0.2207132 -0.08073944
-0.35003915 -1.0476563 -0.21878347 -1.1919816 1.0017658 -1.946708 -0.7388884 0.20516548
-1.3095058 0.11626987 0.36802876 -0.84011275 -1.6706673 -1.0186356 -0.1574646 0.12747815
-0.9592656 -0.89713514 0.037581306 0.21978721 0.103464045 -5.400631 -0.4030285 0.057637572
-0.65818936 -1.7974492 -5.155966 0.80224246 0.618702 1.3135259 -3.7768865 0.045612544

l3.bias f4 [62]
00000000: fa83 813d 841d 8f3b 39df 3dbd ea01 b73c
00000010: 27fa d13e 7018 8f3f 3a1c 12bf 8068 68be
00000020: 1ce4 633e 3061 48be e51e 7cbf a77f 6abf
00000030: b4f1 42bf c9e1 57bf a529 c5be 8650 ce3e
00000040: c029 a2be 3806 07bf 70ce c43e 9405 c3be
00000050: 771e af3d 39b1 3cbf 244c 24bd a5bb 0dbe
00000060: 2aad c13e 2ad0 31bf 7647 8abf 8718 61be
00000070: af4d 10bf e4bf 8abf a006 6d3e 8870 383f
00000080: f6f3 babd 68c1 613f 5e49 5e3e 5105 2dbf
00000090: fa33 023f 06c5 ad3d e068 4a3e 0551 50bf
000000a0: dc37 2cbe 40a5 2bbc 9243 03bf 47d4 493c
000000b0: 2d51 66be 7727 493e 19da a6be e47e 9bbd
000000c0: d41d a83e 7527 a7bf 404f a4be c85a 0ebf
000000d0: cc29 a83e 4224 e7be 6e7b 423f a594 63bf
000000e0: 11a8 673e 166a 6c3f 1433 0cbf 8a6e 0abf
000000f0: 3cc3 803e 691e 7f3f
0.06324001 0.004367532 -0.04635546 0.02233978 0.41011164 1.1179333 -0.5707432 -0.22696114
0.22254986 -0.19568324 -0.9848464 -0.9160103 -0.7615006 -0.84328896 -0.38508335 0.4029581
-0.31672478 -0.52743864 0.3843875 -0.38090193 0.085507326 -0.7370792 -0.040111676 -0.13841112
0.37827426 -0.6945826 -1.0803058 -0.21982013 -0.56368536 -1.083981 0.23147058 0.7204671
-0.09128563 0.8818574 0.21707675 -0.6758624 0.5086056 0.08484845 0.19766569 -0.81373626
-0.16818184 -0.01047641 -0.5127498 0.012318677 -0.22491904 0.19643961 -0.3258827 -0.07592562
0.32835257 -1.3058916 -0.32091713 -0.5560727 0.32844388 -0.4514485 0.7596959 -0.8889869
0.22622706 0.92349374 -0.5476544 -0.5407492 0.25148952 0.9965578
